…
EMNIST podatki že obstajajo v: /content/drive/MyDrive/Colab_Data/emnist_data
Nalagam EMNIST podatke...
Mapiranje shranjeno/posodobljeno v: /content/drive/MyDrive/Colab_Data/emnist_byclass_mapping.npy
Število razredov: 62
Oblika učnih slik: (697932, 28, 28, 1), oznak: (697932, 62)

Primeri slik iz učne množice (X_train):

Model: "sequential_1"
┏━━━━━━━━━━━━━━━━━━━━━━━━━━━━━━━━━┳━━━━━━━━━━━━━━━━━━━━━━━━┳━━━━━━━━━━━━━━━┓
┃ Layer (type)                    ┃ Output Shape           ┃       Param # ┃
┡━━━━━━━━━━━━━━━━━━━━━━━━━━━━━━━━━╇━━━━━━━━━━━━━━━━━━━━━━━━╇━━━━━━━━━━━━━━━┩
│ conv2d_3 (Conv2D)               │ (None, 28, 28, 32)     │           320 │
├─────────────────────────────────┼────────────────────────┼───────────────┤
│ batch_normalization_4           │ (None, 28, 28, 32)     │           128 │
│ (BatchNormalization)            │                        │               │
├─────────────────────────────────┼────────────────────────┼───────────────┤
│ max_pooling2d_3 (MaxPooling2D)  │ (None, 14, 14, 32)     │             0 │
├─────────────────────────────────┼────────────────────────┼───────────────┤
│ conv2d_4 (Conv2D)               │ (None, 14, 14, 64)     │        18,496 │
├─────────────────────────────────┼────────────────────────┼───────────────┤
│ batch_normalization_5           │ (None, 14, 14, 64)     │           256 │
│ (BatchNormalization)            │                        │               │
├─────────────────────────────────┼────────────────────────┼───────────────┤
│ max_pooling2d_4 (MaxPooling2D)  │ (None, 7, 7, 64)       │             0 │
├─────────────────────────────────┼────────────────────────┼───────────────┤
│ conv2d_5 (Conv2D)               │ (None, 7, 7, 128)      │        73,856 │
├─────────────────────────────────┼────────────────────────┼───────────────┤
│ batch_normalization_6           │ (None, 7, 7, 128)      │           512 │
│ (BatchNormalization)            │                        │               │
├─────────────────────────────────┼────────────────────────┼───────────────┤
│ max_pooling2d_5 (MaxPooling2D)  │ (None, 3, 3, 128)      │             0 │
├─────────────────────────────────┼────────────────────────┼───────────────┤
│ dropout_2 (Dropout)             │ (None, 3, 3, 128)      │             0 │
├─────────────────────────────────┼────────────────────────┼───────────────┤
│ flatten_1 (Flatten)             │ (None, 1152)           │             0 │
├─────────────────────────────────┼────────────────────────┼───────────────┤
│ dense_2 (Dense)                 │ (None, 256)            │       295,168 │
├─────────────────────────────────┼────────────────────────┼───────────────┤
│ batch_normalization_7           │ (None, 256)            │         1,024 │
│ (BatchNormalization)            │                        │               │
├─────────────────────────────────┼────────────────────────┼───────────────┤
│ dropout_3 (Dropout)             │ (None, 256)            │             0 │
├─────────────────────────────────┼────────────────────────┼───────────────┤
│ dense_3 (Dense)                 │ (None, 62)             │        15,934 │
└─────────────────────────────────┴────────────────────────┴───────────────┘
 Total params: 405,694 (1.55 MB)
 Trainable params: 404,734 (1.54 MB)
 Non-trainable params: 960 (3.75 KB)

Začenjam treniranje modela. Najboljši model bo shranjen v: /content/drive/MyDrive/Colab_Data/emnist_cnn_robust_model.keras
Epoch 1/50
5453/5453 ━━━━━━━━━━━━━━━━━━━━ 0s 42ms/step - accuracy: 0.7210 - loss: 0.9720
Epoch 1: val_accuracy improved from -inf to 0.84376, saving model to /content/drive/MyDrive/Colab_Data/emnist_cnn_robust_model.keras
…
